RANDOM SEED: 6383
data catagory: train
len of img: 28500
data catagory: test
len of img: 5000
data catagory: val
len of img: 1500
using device: cuda
DataParallel(
  (module): Model(
    (conv1): Sequential(
      (0): Conv2d(1, 32, kernel_size=(3, 3), stride=(1, 1), padding=(1, 1))
      (1): ReLU()
      (2): BatchNorm2d(32, eps=1e-05, momentum=0.1, affine=True, track_running_stats=True)
      (3): Conv2d(32, 32, kernel_size=(3, 3), stride=(2, 2), padding=(1, 1))
      (4): ReLU()
      (5): BatchNorm2d(32, eps=1e-05, momentum=0.1, affine=True, track_running_stats=True)
      (6): MaxPool2d(kernel_size=2, stride=2, padding=0, dilation=1, ceil_mode=False)
      (7): Dropout(p=0.25, inplace=False)
    )
    (conv2): Sequential(
      (0): Conv2d(32, 64, kernel_size=(3, 3), stride=(1, 1), padding=(1, 1))
      (1): ReLU()
      (2): BatchNorm2d(64, eps=1e-05, momentum=0.1, affine=True, track_running_stats=True)
      (3): Conv2d(64, 64, kernel_size=(3, 3), stride=(2, 2), padding=(1, 1))
      (4): ReLU()
      (5): BatchNorm2d(64, eps=1e-05, momentum=0.1, affine=True, track_running_stats=True)
      (6): MaxPool2d(kernel_size=2, stride=2, padding=0, dilation=1, ceil_mode=False)
      (7): Dropout(p=0.25, inplace=False)
    )
    (conv3): Sequential(
      (0): Conv2d(64, 128, kernel_size=(3, 3), stride=(1, 1), padding=(1, 1))
      (1): ReLU()
      (2): BatchNorm2d(128, eps=1e-05, momentum=0.1, affine=True, track_running_stats=True)
      (3): MaxPool2d(kernel_size=2, stride=2, padding=0, dilation=1, ceil_mode=False)
      (4): Dropout(p=0.25, inplace=False)
    )
    (fc): Sequential(
      (0): Linear(in_features=128, out_features=10, bias=True)
    )
  )
)
epoch: 0
Train: [0/446]	Time 8.271 (8.271)	Loss 3.0201 (3.0201)	Prec@1 9.375 (9.375)	Prec@5 50.000 (50.000)
Train: [50/446]	Time 0.023 (0.185)	Loss 1.0192 (1.4880)	Prec@1 60.938 (45.588)	Prec@5 96.875 (90.594)
Train: [100/446]	Time 0.020 (0.023)	Loss 0.8641 (1.2161)	Prec@1 60.938 (54.969)	Prec@5 98.438 (94.766)
Train: [150/446]	Time 0.020 (0.022)	Loss 0.7459 (0.9323)	Prec@1 68.750 (65.531)	Prec@5 100.000 (98.250)
…
