…
            nn.ReLU(),
            nn.BatchNorm2d(128),
            nn.MaxPool2d(2, 2),
            nn.Dropout(0.25)
        )
        
        self.fc = nn.Sequential(
            nn.Linear(128, 10),
        )
        

    def forward(self, x):
        x = self.conv1(x)
        x = self.conv2(x)
        x = self.conv3(x)
        
        x = x.view(x.size(0), -1)
        return self.fc(x)






RANDOM SEED: 6383
data catagory: train
len of img: 27000
data catagory: test
len of img: 5000
data catagory: val
len of img: 3000
using device: cuda
DataParallel(
  (module): Model(
    (conv1): Sequential(
      (0): Conv2d(1, 32, kernel_size=(3, 3), stride=(1, 1), padding=(1, 1))
      (1): ReLU()
      (2): BatchNorm2d(32, eps=1e-05, momentum=0.1, affine=True, track_running_stats=True)
      (3): Conv2d(32, 32, kernel_size=(3, 3), stride=(2, 2), padding=(1, 1))
      (4): ReLU()
      (5): BatchNorm2d(32, eps=1e-05, momentum=0.1, affine=True, track_running_stats=True)
      (6): MaxPool2d(kernel_size=2, stride=2, padding=0, dilation=1, ceil_mode=False)
      (7): Dropout(p=0.25, inplace=False)
    )
    (conv2): Sequential(
      (0): Conv2d(32, 64, kernel_size=(3, 3), stride=(1, 1), padding=(1, 1))
      (1): ReLU()
      (2): BatchNorm2d(64, eps=1e-05, momentum=0.1, affine=True, track_running_stats=True)
      (3): Conv2d(64, 64, kernel_size=(3, 3), stride=(2, 2), padding=(1, 1))
      (4): ReLU()
      (5): BatchNorm2d(64, eps=1e-05, momentum=0.1, affine=True, track_running_stats=True)
      (6): MaxPool2d(kernel_size=2, stride=2, padding=0, dilation=1, ceil_mode=False)
      (7): Dropout(p=0.25, inplace=False)
    )
    (conv3): Sequential(
      (0): Conv2d(64, 128, kernel_size=(3, 3), stride=(1, 1), padding=(1, 1))
      (1): ReLU()
      (2): BatchNorm2d(128, eps=1e-05, momentum=0.1, affine=True, track_running_stats=True)
      (3): MaxPool2d(kernel_size=2, stride=2, padding=0, dilation=1, ceil_mode=False)
      (4): Dropout(p=0.25, inplace=False)
    )
    (fc): Sequential(
      (0): Linear(in_features=128, out_features=10, bias=True)
    )
  )
)
epoch: 0
Train: [0/422]	Time 8.456 (8.456)	Loss 3.1998 (3.1998)	Prec@1 6.250 (6.250)	Prec@5 43.750 (43.750)
Train: [50/422]	Time 0.021 (0.187)	Loss 0.9103 (1.4887)	Prec@1 65.625 (46.936)	Prec@5 98.438 (90.196)
Train: [100/422]	Time 0.019 (0.021)	Loss 1.0353 (1.2158)	Prec@1 65.625 (55.578)	Prec@5 98.438 (94.734)
Train: [150/422]	Time 0.020 (0.021)	Loss 0.8027 (0.9092)	Prec@1 70.312 (65.797)	Prec@5 98.438 (98.484)
…
