…
~fc: Mixed_5b.branch3x3_1.bn.weight
~fc: Mixed_5b.branch3x3_1.bn.bias
~fc: Mixed_5b.branch3x3_2.conv.weight
~fc: Mixed_5b.branch3x3_2.bn.weight
~fc: Mixed_5b.branch3x3_2.bn.bias
~fc: Mixed_5b.branch5x5_1.conv.weight
~fc: Mixed_5b.branch5x5_1.bn.weight
~fc: Mixed_5b.branch5x5_1.bn.bias
~fc: Mixed_5b.branch5x5_2.conv.weight
~fc: Mixed_5b.branch5x5_2.bn.weight
~fc: Mixed_5b.branch5x5_2.bn.bias
~fc: Mixed_5b.branch_pool.conv.weight
~fc: Mixed_5b.branch_pool.bn.weight
~fc: Mixed_5b.branch_pool.bn.bias
~fc: fc2.weight
~fc: fc2.bias
fc learning rate: 0.001
not fc learning rate: 0.001
googleNet(
  (Conv2d1): BasicConv2d(
    (conv): Conv2d(1, 8, kernel_size=(5, 5), stride=(1, 1), padding=(2, 2), bias=False)
    (bn): BatchNorm2d(8, eps=0.001, momentum=0.1, affine=True, track_running_stats=True)
  )
  (Conv2d2): BasicConv2d(
    (conv): Conv2d(8, 32, kernel_size=(3, 3), stride=(1, 1), padding=(1, 1), bias=False)
    (bn): BatchNorm2d(32, eps=0.001, momentum=0.1, affine=True, track_running_stats=True)
  )
  (Mixed_3a): InceptionModule(
    (branch1x1): BasicConv2d(
      (conv): Conv2d(32, 16, kernel_size=(1, 1), stride=(1, 1), bias=False)
      (bn): BatchNorm2d(16, eps=0.001, momentum=0.1, affine=True, track_running_stats=True)
    )
    (branch3x3_1): BasicConv2d(
      (conv): Conv2d(32, 24, kernel_size=(1, 1), stride=(1, 1), bias=False)
      (bn): BatchNorm2d(24, eps=0.001, momentum=0.1, affine=True, track_running_stats=True)
    )
    (branch3x3_2): BasicConv2d(
      (conv): Conv2d(24, 32, kernel_size=(3, 3), stride=(1, 1), padding=(1, 1), bias=False)
      (bn): BatchNorm2d(32, eps=0.001, momentum=0.1, affine=True, track_running_stats=True)
    )
    (branch5x5_1): BasicConv2d(
      (conv): Conv2d(32, 4, kernel_size=(1, 1), stride=(1, 1), bias=False)
      (bn): BatchNorm2d(4, eps=0.001, momentum=0.1, affine=True, track_running_stats=True)
    )
    (branch5x5_2): BasicConv2d(
      (conv): Conv2d(4, 8, kernel_size=(5, 5), stride=(1, 1), padding=(2, 2), bias=False)
      (bn): BatchNorm2d(8, eps=0.001, momentum=0.1, affine=True, track_running_stats=True)
    )
    (branch_pool): BasicConv2d(
      (conv): Conv2d(32, 8, kernel_size=(1, 1), stride=(1, 1), bias=False)
      (bn): BatchNorm2d(8, eps=0.001, momentum=0.1, affine=True, track_running_stats=True)
    )
  )
  (Mixed_3b): InceptionModule(
    (branch1x1): BasicConv2d(
      (conv): Conv2d(64, 32, kernel_size=(1, 1), stride=(1, 1), bias=False)
      (bn): BatchNorm2d(32, eps=0.001, momentum=0.1, affine=True, track_running_stats=True)
    )
    (branch3x3_1): BasicConv2d(
      (conv): Conv2d(64, 32, kernel_size=(1, 1), stride=(1, 1), bias=False)
      (bn): BatchNorm2d(32, eps=0.001, momentum=0.1, affine=True, track_running_stats=True)
    )
    (branch3x3_2): BasicConv2d(
      (conv): Conv2d(32, 48, kernel_size=(3, 3), stride=(1, 1), padding=(1, 1), bias=False)
      (bn): BatchNorm2d(48, eps=0.001, momentum=0.1, affine=True, track_running_stats=True)
    )
    (branch5x5_1): BasicConv2d(
      (conv): Conv2d(64, 8, kernel_size=(1, 1), stride=(1, 1), bias=False)
      (bn): BatchNorm2d(8, eps=0.001, momentum=0.1, affine=True, track_running_stats=True)
    )
    (branch5x5_2): BasicConv2d(
      (conv): Conv2d(8, 24, kernel_size=(5, 5), stride=(1, 1), padding=(2, 2), bias=False)
      (bn): BatchNorm2d(24, eps=0.001, momentum=0.1, affine=True, track_running_stats=True)
    )
    (branch_pool): BasicConv2d(
      (conv): Conv2d(64, 16, kernel_size=(1, 1), stride=(1, 1), bias=False)
      (bn): BatchNorm2d(16, eps=0.001, momentum=0.1, affine=True, track_running_stats=True)
    )
  )
  (Mixed_4a): InceptionModule(
    (branch1x1): BasicConv2d(
      (conv): Conv2d(120, 48, kernel_size=(1, 1), stride=(1, 1), bias=False)
      (bn): BatchNorm2d(48, eps=0.001, momentum=0.1, affine=True, track_running_stats=True)
    )
    (branch3x3_1): BasicConv2d(
      (conv): Conv2d(120, 24, kernel_size=(1, 1), stride=(1, 1), bias=False)
      (bn): BatchNorm2d(24, eps=0.001, momentum=0.1, affine=True, track_running_stats=True)
    )
    (branch3x3_2): BasicConv2d(
      (conv): Conv2d(24, 52, kernel_size=(3, 3), stride=(1, 1), padding=(1, 1), bias=False)
      (bn): BatchNorm2d(52, eps=0.001, momentum=0.1, affine=True, track_running_stats=True)
    )
    (branch5x5_1): BasicConv2d(
      (conv): Conv2d(120, 4, kernel_size=(1, 1), stride=(1, 1), bias=False)
      (bn): BatchNorm2d(4, eps=0.001, momentum=0.1, affine=True, track_running_stats=True)
    )
    (branch5x5_2): BasicConv2d(
      (conv): Conv2d(4, 12, kernel_size=(5, 5), stride=(1, 1), padding=(2, 2), bias=False)
      (bn): BatchNorm2d(12, eps=0.001, momentum=0.1, affine=True, track_running_stats=True)
    )
    (branch_pool): BasicConv2d(
      (conv): Conv2d(120, 16, kernel_size=(1, 1), stride=(1, 1), bias=False)
      (bn): BatchNorm2d(16, eps=0.001, momentum=0.1, affine=True, track_running_stats=True)
    )
  )
  (Mixed_4b): InceptionModule(
    (branch1x1): BasicConv2d(
      (conv): Conv2d(128, 40, kernel_size=(1, 1), stride=(1, 1), bias=False)
      (bn): BatchNorm2d(40, eps=0.001, momentum=0.1, affine=True, track_running_stats=True)
    )
    (branch3x3_1): BasicConv2d(
      (conv): Conv2d(128, 28, kernel_size=(1, 1), stride=(1, 1), bias=False)
      (bn): BatchNorm2d(28, eps=0.001, momentum=0.1, affine=True, track_running_stats=True)
    )
    (branch3x3_2): BasicConv2d(
      (conv): Conv2d(28, 56, kernel_size=(3, 3), stride=(1, 1), padding=(1, 1), bias=False)
      (bn): BatchNorm2d(56, eps=0.001, momentum=0.1, affine=True, track_running_stats=True)
    )
    (branch5x5_1): BasicConv2d(
      (conv): Conv2d(128, 6, kernel_size=(1, 1), stride=(1, 1), bias=False)
      (bn): BatchNorm2d(6, eps=0.001, momentum=0.1, affine=True, track_running_stats=True)
    )
    (branch5x5_2): BasicConv2d(
      (conv): Conv2d(6, 16, kernel_size=(5, 5), stride=(1, 1), padding=(2, 2), bias=False)
      (bn): BatchNorm2d(16, eps=0.001, momentum=0.1, affine=True, track_running_stats=True)
    )
    (branch_pool): BasicConv2d(
      (conv): Conv2d(128, 16, kernel_size=(1, 1), stride=(1, 1), bias=False)
      (bn): BatchNorm2d(16, eps=0.001, momentum=0.1, affine=True, track_running_stats=True)
    )
  )
  (Mixed_4c): InceptionModule(
    (branch1x1): BasicConv2d(
      (conv): Conv2d(128, 32, kernel_size=(1, 1), stride=(1, 1), bias=False)
      (bn): BatchNorm2d(32, eps=0.001, momentum=0.1, affine=True, track_running_stats=True)
    )
    (branch3x3_1): BasicConv2d(
      (conv): Conv2d(128, 32, kernel_size=(1, 1), stride=(1, 1), bias=False)
      (bn): BatchNorm2d(32, eps=0.001, momentum=0.1, affine=True, track_running_stats=True)
    )
    (branch3x3_2): BasicConv2d(
      (conv): Conv2d(32, 64, kernel_size=(3, 3), stride=(1, 1), padding=(1, 1), bias=False)
      (bn): BatchNorm2d(64, eps=0.001, momentum=0.1, affine=True, track_running_stats=True)
    )
    (branch5x5_1): BasicConv2d(
      (conv): Conv2d(128, 12, kernel_size=(1, 1), stride=(1, 1), bias=False)
      (bn): BatchNorm2d(12, eps=0.001, momentum=0.1, affine=True, track_running_stats=True)
    )
    (branch5x5_2): BasicConv2d(
      (conv): Conv2d(12, 16, kernel_size=(5, 5), stride=(1, 1), padding=(2, 2), bias=False)
      (bn): BatchNorm2d(16, eps=0.001, momentum=0.1, affine=True, track_running_stats=True)
    )
    (branch_pool): BasicConv2d(
      (conv): Conv2d(128, 16, kernel_size=(1, 1), stride=(1, 1), bias=False)
      (bn): BatchNorm2d(16, eps=0.001, momentum=0.1, affine=True, track_running_stats=True)
    )
  )
  (Mixed_4d): InceptionModule(
    (branch1x1): BasicConv2d(
      (conv): Conv2d(128, 28, kernel_size=(1, 1), stride=(1, 1), bias=False)
      (bn): BatchNorm2d(28, eps=0.001, momentum=0.1, affine=True, track_running_stats=True)
    )
    (branch3x3_1): BasicConv2d(
      (conv): Conv2d(128, 36, kernel_size=(1, 1), stride=(1, 1), bias=False)
      (bn): BatchNorm2d(36, eps=0.001, momentum=0.1, affine=True, track_running_stats=True)
    )
    (branch3x3_2): BasicConv2d(
      (conv): Conv2d(36, 72, kernel_size=(3, 3), stride=(1, 1), padding=(1, 1), bias=False)
      (bn): BatchNorm2d(72, eps=0.001, momentum=0.1, affine=True, track_running_stats=True)
    )
    (branch5x5_1): BasicConv2d(
      (conv): Conv2d(128, 8, kernel_size=(1, 1), stride=(1, 1), bias=False)
      (bn): BatchNorm2d(8, eps=0.001, momentum=0.1, affine=True, track_running_stats=True)
    )
    (branch5x5_2): BasicConv2d(
      (conv): Conv2d(8, 16, kernel_size=(5, 5), stride=(1, 1), padding=(2, 2), bias=False)
      (bn): BatchNorm2d(16, eps=0.001, momentum=0.1, affine=True, track_running_stats=True)
    )
    (branch_pool): BasicConv2d(
      (conv): Conv2d(128, 16, kernel_size=(1, 1), stride=(1, 1), bias=False)
      (bn): BatchNorm2d(16, eps=0.001, momentum=0.1, affine=True, track_running_stats=True)
    )
  )
  (Mixed_4e): InceptionModule(
    (branch1x1): BasicConv2d(
      (conv): Conv2d(132, 64, kernel_size=(1, 1), stride=(1, 1), bias=False)
      (bn): BatchNorm2d(64, eps=0.001, momentum=0.1, affine=True, track_running_stats=True)
    )
    (branch3x3_1): BasicConv2d(
      (conv): Conv2d(132, 40, kernel_size=(1, 1), stride=(1, 1), bias=False)
      (bn): BatchNorm2d(40, eps=0.001, momentum=0.1, affine=True, track_running_stats=True)
    )
    (branch3x3_2): BasicConv2d(
      (conv): Conv2d(40, 80, kernel_size=(3, 3), stride=(1, 1), padding=(1, 1), bias=False)
      (bn): BatchNorm2d(80, eps=0.001, momentum=0.1, affine=True, track_running_stats=True)
    )
    (branch5x5_1): BasicConv2d(
      (conv): Conv2d(132, 8, kernel_size=(1, 1), stride=(1, 1), bias=False)
      (bn): BatchNorm2d(8, eps=0.001, momentum=0.1, affine=True, track_running_stats=True)
    )
    (branch5x5_2): BasicConv2d(
      (conv): Conv2d(8, 32, kernel_size=(5, 5), stride=(1, 1), padding=(2, 2), bias=False)
      (bn): BatchNorm2d(32, eps=0.001, momentum=0.1, affine=True, track_running_stats=True)
    )
    (branch_pool): BasicConv2d(
      (conv): Conv2d(132, 32, kernel_size=(1, 1), stride=(1, 1), bias=False)
      (bn): BatchNorm2d(32, eps=0.001, momentum=0.1, affine=True, track_running_stats=True)
    )
  )
  (Mixed_5a): InceptionModule(
    (branch1x1): BasicConv2d(
      (conv): Conv2d(208, 64, kernel_size=(1, 1), stride=(1, 1), bias=False)
      (bn): BatchNorm2d(64, eps=0.001, momentum=0.1, affine=True, track_running_stats=True)
    )
    (branch3x3_1): BasicConv2d(
      (conv): Conv2d(208, 40, kernel_size=(1, 1), stride=(1, 1), bias=False)
      (bn): BatchNorm2d(40, eps=0.001, momentum=0.1, affine=True, track_running_stats=True)
    )
    (branch3x3_2): BasicConv2d(
      (conv): Conv2d(40, 80, kernel_size=(3, 3), stride=(1, 1), padding=(1, 1), bias=False)
      (bn): BatchNorm2d(80, eps=0.001, momentum=0.1, affine=True, track_running_stats=True)
    )
    (branch5x5_1): BasicConv2d(
      (conv): Conv2d(208, 8, kernel_size=(1, 1), stride=(1, 1), bias=False)
      (bn): BatchNorm2d(8, eps=0.001, momentum=0.1, affine=True, track_running_stats=True)
    )
    (branch5x5_2): BasicConv2d(
      (conv): Conv2d(8, 32, kernel_size=(5, 5), stride=(1, 1), padding=(2, 2), bias=False)
      (bn): BatchNorm2d(32, eps=0.001, momentum=0.1, affine=True, track_running_stats=True)
    )
    (branch_pool): BasicConv2d(
      (conv): Conv2d(208, 32, kernel_size=(1, 1), stride=(1, 1), bias=False)
      (bn): BatchNorm2d(32, eps=0.001, momentum=0.1, affine=True, track_running_stats=True)
    )
  )
  (Mixed_5b): InceptionModule(
    (branch1x1): BasicConv2d(
      (conv): Conv2d(208, 96, kernel_size=(1, 1), stride=(1, 1), bias=False)
      (bn): BatchNorm2d(96, eps=0.001, momentum=0.1, affine=True, track_running_stats=True)
    )
    (branch3x3_1): BasicConv2d(
      (conv): Conv2d(208, 48, kernel_size=(1, 1), stride=(1, 1), bias=False)
      (bn): BatchNorm2d(48, eps=0.001, momentum=0.1, affine=True, track_running_stats=True)
    )
    (branch3x3_2): BasicConv2d(
      (conv): Conv2d(48, 96, kernel_size=(3, 3), stride=(1, 1), padding=(1, 1), bias=False)
      (bn): BatchNorm2d(96, eps=0.001, momentum=0.1, affine=True, track_running_stats=True)
    )
    (branch5x5_1): BasicConv2d(
      (conv): Conv2d(208, 12, kernel_size=(1, 1), stride=(1, 1), bias=False)
      (bn): BatchNorm2d(12, eps=0.001, momentum=0.1, affine=True, track_running_stats=True)
    )
    (branch5x5_2): BasicConv2d(
      (conv): Conv2d(12, 32, kernel_size=(5, 5), stride=(1, 1), padding=(2, 2), bias=False)
      (bn): BatchNorm2d(32, eps=0.001, momentum=0.1, affine=True, track_running_stats=True)
    )
    (branch_pool): BasicConv2d(
      (conv): Conv2d(208, 32, kernel_size=(1, 1), stride=(1, 1), bias=False)
      (bn): BatchNorm2d(32, eps=0.001, momentum=0.1, affine=True, track_running_stats=True)
    )
  )
  (dropout_layer): Dropout(p=0.5, inplace=False)
  (fc2): Linear(in_features=256, out_features=10, bias=True)
)
epoch: 0
Train: [0/422]	Time 5.126 (5.126)	Loss 2.4017 (2.4017)	Prec@1 7.812 (7.812)	Prec@5 42.188 (42.188)
Train: [50/422]	Time 0.064 (0.170)	Loss 0.9853 (1.4610)	Prec@1 70.312 (48.131)	Prec@5 98.438 (90.901)
Train: [100/422]	Time 0.069 (0.068)	Loss 0.8906 (1.2066)	Prec@1 68.750 (56.672)	Prec@5 100.000 (95.125)
Train: [150/422]	Time 0.066 (0.069)	Loss 0.5097 (0.9177)	Prec@1 84.375 (66.797)	Prec@5 98.438 (98.438)
…
