…
~fc: layer2.0.bn2.bias
~fc: layer2.0.downsample.0.weight
~fc: layer2.0.downsample.1.weight
~fc: layer2.0.downsample.1.bias
~fc: layer2.1.conv1.weight
~fc: layer2.1.bn1.weight
~fc: layer2.1.bn1.bias
~fc: layer2.1.conv2.weight
~fc: layer2.1.bn2.weight
~fc: layer2.1.bn2.bias
~fc: layer3.0.conv1.weight
~fc: layer3.0.bn1.weight
~fc: layer3.0.bn1.bias
~fc: layer3.0.conv2.weight
~fc: layer3.0.bn2.weight
~fc: layer3.0.bn2.bias
~fc: layer3.0.downsample.0.weight
~fc: layer3.0.downsample.1.weight
~fc: layer3.0.downsample.1.bias
 fc: fc.weight
 fc: fc.bias
fc learning rate: 0.001
not fc learning rate: 0.001
ResNet(
  (conv1): Conv2d(1, 64, kernel_size=(3, 3), stride=(1, 1), padding=(1, 1), bias=False)
  (bn1): BatchNorm2d(64, eps=1e-05, momentum=0.1, affine=True, track_running_stats=True)
  (relu): ReLU(inplace=True)
  (layer1): Sequential(
    (0): BasicBlock(
      (conv1): Conv2d(64, 64, kernel_size=(3, 3), stride=(1, 1), padding=(1, 1), bias=False)
      (bn1): BatchNorm2d(64, eps=1e-05, momentum=0.1, affine=True, track_running_stats=True)
      (relu): ReLU(inplace=True)
      (conv2): Conv2d(64, 64, kernel_size=(3, 3), stride=(1, 1), padding=(1, 1), bias=False)
      (bn2): BatchNorm2d(64, eps=1e-05, momentum=0.1, affine=True, track_running_stats=True)
    )
    (1): BasicBlock(
      (conv1): Conv2d(64, 64, kernel_size=(3, 3), stride=(1, 1), padding=(1, 1), bias=False)
      (bn1): BatchNorm2d(64, eps=1e-05, momentum=0.1, affine=True, track_running_stats=True)
      (relu): ReLU(inplace=True)
      (conv2): Conv2d(64, 64, kernel_size=(3, 3), stride=(1, 1), padding=(1, 1), bias=False)
      (bn2): BatchNorm2d(64, eps=1e-05, momentum=0.1, affine=True, track_running_stats=True)
    )
  )
  (layer2): Sequential(
    (0): BasicBlock(
      (conv1): Conv2d(64, 128, kernel_size=(3, 3), stride=(2, 2), padding=(1, 1), bias=False)
      (bn1): BatchNorm2d(128, eps=1e-05, momentum=0.1, affine=True, track_running_stats=True)
      (relu): ReLU(inplace=True)
      (conv2): Conv2d(128, 128, kernel_size=(3, 3), stride=(1, 1), padding=(1, 1), bias=False)
      (bn2): BatchNorm2d(128, eps=1e-05, momentum=0.1, affine=True, track_running_stats=True)
      (downsample): Sequential(
        (0): Conv2d(64, 128, kernel_size=(1, 1), stride=(2, 2), bias=False)
        (1): BatchNorm2d(128, eps=1e-05, momentum=0.1, affine=True, track_running_stats=True)
      )
    )
    (1): BasicBlock(
      (conv1): Conv2d(128, 128, kernel_size=(3, 3), stride=(1, 1), padding=(1, 1), bias=False)
      (bn1): BatchNorm2d(128, eps=1e-05, momentum=0.1, affine=True, track_running_stats=True)
      (relu): ReLU(inplace=True)
      (conv2): Conv2d(128, 128, kernel_size=(3, 3), stride=(1, 1), padding=(1, 1), bias=False)
      (bn2): BatchNorm2d(128, eps=1e-05, momentum=0.1, affine=True, track_running_stats=True)
    )
  )
  (layer3): Sequential(
    (0): BasicBlock(
      (conv1): Conv2d(128, 256, kernel_size=(3, 3), stride=(2, 2), padding=(1, 1), bias=False)
      (bn1): BatchNorm2d(256, eps=1e-05, momentum=0.1, affine=True, track_running_stats=True)
      (relu): ReLU(inplace=True)
      (conv2): Conv2d(256, 256, kernel_size=(3, 3), stride=(1, 1), padding=(1, 1), bias=False)
      (bn2): BatchNorm2d(256, eps=1e-05, momentum=0.1, affine=True, track_running_stats=True)
      (downsample): Sequential(
        (0): Conv2d(128, 256, kernel_size=(1, 1), stride=(2, 2), bias=False)
        (1): BatchNorm2d(256, eps=1e-05, momentum=0.1, affine=True, track_running_stats=True)
      )
    )
  )
  (avgpool): AvgPool2d(kernel_size=7, stride=7, padding=0)
  (fc): Linear(in_features=256, out_features=10, bias=True)
)
epoch: 0
Train: [0/422]	Time 0.459 (0.459)	Loss 2.4076 (2.4076)	Prec@1 4.688 (4.688)	Prec@5 42.188 (42.188)
Train: [50/422]	Time 0.019 (0.026)	Loss 0.8391 (1.2549)	Prec@1 70.312 (54.963)	Prec@5 100.000 (95.006)
Train: [100/422]	Time 0.017 (0.018)	Loss 0.7851 (1.0688)	Prec@1 71.875 (61.359)	Prec@5 100.000 (97.312)
Train: [150/422]	Time 0.020 (0.019)	Loss 0.7681 (0.8550)	Prec@1 71.875 (68.344)	Prec@5 98.438 (98.781)
…
