RANDOM SEED: 8726
data catagory: train
len of img: 27000
data catagory: test
len of img: 5000
data catagory: val
len of img: 3000
using device: cuda
DataParallel(
  (module): CoolNameNet(
    (input_conv): Conv2d(1, 96, kernel_size=(3, 3), stride=(1, 1), bias=False)
    (network): Sequential(
      (0): DenseBlock(
        (bottleneck): Sequential(
          (0): BasicBlock(
            (bn): BatchNorm2d(240, eps=1e-05, momentum=0.1, affine=True, track_running_stats=True)
            (relu): ReLU(inplace)
            (conv): Conv2d(240, 96, kernel_size=(3, 3), stride=(1, 1), padding=(1, 1), groups=2, bias=False)
          )
          (1): Dropout2d(p=0.05)
          (2): BasicBlock(
            (bn): BatchNorm2d(96, eps=1e-05, momentum=0.1, affine=True, track_running_stats=True)
            (relu): ReLU(inplace)
            (conv): Conv2d(96, 96, kernel_size=(3, 3), stride=(2, 2), padding=(1, 1), groups=2, bias=False)
          )
          (3): SqeezeAndExcite(
            (sqex): Sequential(
              (0): Linear(in_features=96, out_features=12, bias=False)
              (1): ReLU(inplace)
              (2): Linear(in_features=12, out_features=96, bias=False)
              (3): Sigmoid()
            )
          )
        )
      )
      (1): DenseBlock(
        (bottleneck): Sequential(
          (0): BasicBlock(
            (bn): BatchNorm2d(240, eps=1e-05, momentum=0.1, affine=True, track_running_stats=True)
            (relu): ReLU(inplace)
            (conv): Conv2d(240, 96, kernel_size=(3, 3), stride=(1, 1), padding=(1, 1), groups=4, bias=False)
          )
          (1): Dropout2d(p=0.05)
          (2): BasicBlock(
            (bn): BatchNorm2d(96, eps=1e-05, momentum=0.1, affine=True, track_running_stats=True)
            (relu): ReLU(inplace)
            (conv): Conv2d(96, 96, kernel_size=(3, 3), stride=(2, 2), padding=(1, 1), groups=4, bias=False)
          )
          (3): SqeezeAndExcite(
            (sqex): Sequential(
              (0): Linear(in_features=96, out_features=12, bias=False)
              (1): ReLU(inplace)
              (2): Linear(in_features=12, out_features=96, bias=False)
              (3): Sigmoid()
            )
          )
        )
      )
      (2): DenseBlock(
        (bottleneck): Sequential(
          (0): BasicBlock(
            (bn): BatchNorm2d(240, eps=1e-05, momentum=0.1, affine=True, track_running_stats=True)
            (relu): ReLU(inplace)
            (conv): Conv2d(240, 96, kernel_size=(3, 3), stride=(1, 1), padding=(1, 1), groups=8, bias=False)
          )
          (1): Dropout2d(p=0.05)
          (2): BasicBlock(
            (bn): BatchNorm2d(96, eps=1e-05, momentum=0.1, affine=True, track_running_stats=True)
            (relu): ReLU(inplace)
            (conv): Conv2d(96, 96, kernel_size=(3, 3), stride=(2, 2), padding=(1, 1), groups=8, bias=False)
          )
          (3): SqeezeAndExcite(
            (sqex): Sequential(
              (0): Linear(in_features=96, out_features=12, bias=False)
              (1): ReLU(inplace)
              (2): Linear(in_features=12, out_features=96, bias=False)
              (3): Sigmoid()
            )
          )
        )
      )
      (3): DenseBlock(
        (bottleneck): Sequential(
          (0): BasicBlock(
            (bn): BatchNorm2d(240, eps=1e-05, momentum=0.1, affine=True, track_running_stats=True)
            (relu): ReLU(inplace)
            (conv): Conv2d(240, 96, kernel_size=(3, 3), stride=(1, 1), padding=(1, 1), groups=16, bias=False)
          )
          (1): Dropout2d(p=0.05)
          (2): BasicBlock(
            (bn): BatchNorm2d(96, eps=1e-05, momentum=0.1, affine=True, track_running_stats=True)
            (relu): ReLU(inplace)
            (conv): Conv2d(96, 96, kernel_size=(3, 3), stride=(2, 2), padding=(1, 1), groups=16, bias=False)
          )
          (3): SqeezeAndExcite(
            (sqex): Sequential(
              (0): Linear(in_features=96, out_features=12, bias=False)
              (1): ReLU(inplace)
              (2): Linear(in_features=12, out_features=96, bias=False)
              (3): Sigmoid()
            )
          )
        )
      )
      (4): DenseBlock(
        (bottleneck): Sequential(
          (0): BasicBlock(
            (bn): BatchNorm2d(240, eps=1e-05, momentum=0.1, affine=True, track_running_stats=True)
            (relu): ReLU(inplace)
            (conv): Conv2d(240, 96, kernel_size=(3, 3), stride=(1, 1), padding=(1, 1), groups=48, bias=False)
          )
          (1): Dropout2d(p=0.05)
          (2): BasicBlock(
            (bn): BatchNorm2d(96, eps=1e-05, momentum=0.1, affine=True, track_running_stats=True)
            (relu): ReLU(inplace)
            (conv): Conv2d(96, 96, kernel_size=(3, 3), stride=(2, 2), padding=(1, 1), groups=32, bias=False)
          )
          (3): SqeezeAndExcite(
            (sqex): Sequential(
              (0): Linear(in_features=96, out_features=12, bias=False)
              (1): ReLU(inplace)
              (2): Linear(in_features=12, out_features=96, bias=False)
              (3): Sigmoid()
            )
          )
        )
      )
    )
    (bn): BatchNorm1d(96, eps=1e-05, momentum=0.1, affine=True, track_running_stats=True)
    (output_linear): Linear(in_features=96, out_features=10, bias=False)
  )
)
epoch: 0
Train: [0/422]	Time 0.551 (0.551)	Loss 2.3491 (2.3491)	Prec@1 10.938 (10.938)	Prec@5 46.875 (46.875)
Train: [50/422]	Time 0.282 (0.305)	Loss 1.4197 (1.8245)	Prec@1 59.375 (37.837)	Prec@5 95.312 (85.355)
Train: [100/422]	Time 0.318 (0.301)	Loss 1.0323 (1.4892)	Prec@1 65.625 (50.125)	Prec@5 96.875 (91.844)
Train: [150/422]	Time 0.276 (0.302)	Loss 0.8657 (1.0538)	Prec@1 65.625 (64.109)	Prec@5 100.000 (98.125)
…
