RANDOM SEED: 8726
data catagory: train
len of img: 27000
data catagory: test
len of img: 5000
data catagory: val
len of img: 3000
using device: cuda
DataParallel(
  (module): DualPathNet(
    (conv1): Conv2d(1, 16, kernel_size=(3, 3), stride=(1, 1), padding=(1, 1), bias=False)
    (stage1_0): Transition(
      (resnet_block): PreActBlock(
        (bn1): BatchNorm2d(16, eps=1e-05, momentum=0.1, affine=True, track_running_stats=True)
        (conv1): Conv2d(16, 160, kernel_size=(3, 3), stride=(1, 1), padding=(1, 1), bias=False)
        (bn2): BatchNorm2d(160, eps=1e-05, momentum=0.1, affine=True, track_running_stats=True)
        (conv2): Conv2d(160, 160, kernel_size=(3, 3), stride=(1, 1), padding=(1, 1), bias=False)
        (shortcut): Sequential(
          (0): Conv2d(16, 160, kernel_size=(1, 1), stride=(1, 1), bias=False)
        )
      )
      (conv): Conv2d(16, 32, kernel_size=(3, 3), stride=(1, 1), padding=(1, 1), bias=False)
    )
    (stage1): Sequential(
      (0): DualPathBlock(
        (conv_block): ConvBlock(
          (bn1): BatchNorm2d(192, eps=1e-05, momentum=0.1, affine=True, track_running_stats=True)
          (conv1): Conv2d(192, 176, kernel_size=(3, 3), stride=(1, 1), padding=(1, 1), bias=False)
          (bn2): BatchNorm2d(176, eps=1e-05, momentum=0.1, affine=True, track_running_stats=True)
          (conv2): Conv2d(176, 176, kernel_size=(3, 3), stride=(1, 1), padding=(1, 1), bias=False)
        )
      )
      (1): DualPathBlock(
        (conv_block): ConvBlock(
          (bn1): BatchNorm2d(208, eps=1e-05, momentum=0.1, affine=True, track_running_stats=True)
          (conv1): Conv2d(208, 176, kernel_size=(3, 3), stride=(1, 1), padding=(1, 1), bias=False)
          (bn2): BatchNorm2d(176, eps=1e-05, momentum=0.1, affine=True, track_running_stats=True)
          (conv2): Conv2d(176, 176, kernel_size=(3, 3), stride=(1, 1), padding=(1, 1), bias=False)
        )
      )
      (2): DualPathBlock(
        (conv_block): ConvBlock(
          (bn1): BatchNorm2d(224, eps=1e-05, momentum=0.1, affine=True, track_running_stats=True)
          (conv1): Conv2d(224, 176, kernel_size=(3, 3), stride=(1, 1), padding=(1, 1), bias=False)
          (bn2): BatchNorm2d(176, eps=1e-05, momentum=0.1, affine=True, track_running_stats=True)
          (conv2): Conv2d(176, 176, kernel_size=(3, 3), stride=(1, 1), padding=(1, 1), bias=False)
        )
      )
    )
    (stage2_0): Transition(
      (resnet_block): PreActBlock(
        (bn1): BatchNorm2d(240, eps=1e-05, momentum=0.1, affine=True, track_running_stats=True)
        (conv1): Conv2d(240, 320, kernel_size=(3, 3), stride=(2, 2), padding=(1, 1), bias=False)
        (bn2): BatchNorm2d(320, eps=1e-05, momentum=0.1, affine=True, track_running_stats=True)
        (conv2): Conv2d(320, 320, kernel_size=(3, 3), stride=(1, 1), padding=(1, 1), bias=False)
        (shortcut): Sequential(
          (0): Conv2d(240, 320, kernel_size=(1, 1), stride=(2, 2), bias=False)
        )
      )
      (conv): Conv2d(240, 64, kernel_size=(3, 3), stride=(2, 2), padding=(1, 1), bias=False)
    )
    (stage2): Sequential(
      (0): DualPathBlock(
        (conv_block): ConvBlock(
          (bn1): BatchNorm2d(384, eps=1e-05, momentum=0.1, affine=True, track_running_stats=True)
          (conv1): Conv2d(384, 352, kernel_size=(3, 3), stride=(1, 1), padding=(1, 1), bias=False)
          (bn2): BatchNorm2d(352, eps=1e-05, momentum=0.1, affine=True, track_running_stats=True)
          (conv2): Conv2d(352, 352, kernel_size=(3, 3), stride=(1, 1), padding=(1, 1), bias=False)
        )
      )
      (1): DualPathBlock(
        (conv_block): ConvBlock(
          (bn1): BatchNorm2d(416, eps=1e-05, momentum=0.1, affine=True, track_running_stats=True)
          (conv1): Conv2d(416, 352, kernel_size=(3, 3), stride=(1, 1), padding=(1, 1), bias=False)
          (bn2): BatchNorm2d(352, eps=1e-05, momentum=0.1, affine=True, track_running_stats=True)
          (conv2): Conv2d(352, 352, kernel_size=(3, 3), stride=(1, 1), padding=(1, 1), bias=False)
        )
      )
      (2): DualPathBlock(
        (conv_block): ConvBlock(
          (bn1): BatchNorm2d(448, eps=1e-05, momentum=0.1, affine=True, track_running_stats=True)
          (conv1): Conv2d(448, 352, kernel_size=(3, 3), stride=(1, 1), padding=(1, 1), bias=False)
          (bn2): BatchNorm2d(352, eps=1e-05, momentum=0.1, affine=True, track_running_stats=True)
          (conv2): Conv2d(352, 352, kernel_size=(3, 3), stride=(1, 1), padding=(1, 1), bias=False)
        )
      )
    )
    (stage3_0): Transition(
      (resnet_block): PreActBlock(
        (bn1): BatchNorm2d(480, eps=1e-05, momentum=0.1, affine=True, track_running_stats=True)
        (conv1): Conv2d(480, 640, kernel_size=(3, 3), stride=(2, 2), padding=(1, 1), bias=False)
        (bn2): BatchNorm2d(640, eps=1e-05, momentum=0.1, affine=True, track_running_stats=True)
        (conv2): Conv2d(640, 640, kernel_size=(3, 3), stride=(1, 1), padding=(1, 1), bias=False)
        (shortcut): Sequential(
          (0): Conv2d(480, 640, kernel_size=(1, 1), stride=(2, 2), bias=False)
        )
      )
      (conv): Conv2d(480, 128, kernel_size=(3, 3), stride=(2, 2), padding=(1, 1), bias=False)
    )
    (stage3): Sequential(
      (0): DualPathBlock(
        (conv_block): ConvBlock(
          (bn1): BatchNorm2d(768, eps=1e-05, momentum=0.1, affine=True, track_running_stats=True)
          (conv1): Conv2d(768, 704, kernel_size=(3, 3), stride=(1, 1), padding=(1, 1), bias=False)
          (bn2): BatchNorm2d(704, eps=1e-05, momentum=0.1, affine=True, track_running_stats=True)
          (conv2): Conv2d(704, 704, kernel_size=(3, 3), stride=(1, 1), padding=(1, 1), bias=False)
        )
      )
      (1): DualPathBlock(
        (conv_block): ConvBlock(
          (bn1): BatchNorm2d(832, eps=1e-05, momentum=0.1, affine=True, track_running_stats=True)
          (conv1): Conv2d(832, 704, kernel_size=(3, 3), stride=(1, 1), padding=(1, 1), bias=False)
          (bn2): BatchNorm2d(704, eps=1e-05, momentum=0.1, affine=True, track_running_stats=True)
          (conv2): Conv2d(704, 704, kernel_size=(3, 3), stride=(1, 1), padding=(1, 1), bias=False)
        )
      )
      (2): DualPathBlock(
        (conv_block): ConvBlock(
          (bn1): BatchNorm2d(896, eps=1e-05, momentum=0.1, affine=True, track_running_stats=True)
          (conv1): Conv2d(896, 704, kernel_size=(3, 3), stride=(1, 1), padding=(1, 1), bias=False)
          (bn2): BatchNorm2d(704, eps=1e-05, momentum=0.1, affine=True, track_running_stats=True)
          (conv2): Conv2d(704, 704, kernel_size=(3, 3), stride=(1, 1), padding=(1, 1), bias=False)
        )
      )
    )
    (bn): BatchNorm2d(960, eps=1e-05, momentum=0.1, affine=True, track_running_stats=True)
    (linear): Linear(in_features=960, out_features=10, bias=True)
  )
)
epoch: 0
Train: [0/422]	Time 4.330 (4.330)	Loss 2.5588 (2.5588)	Prec@1 7.812 (7.812)	Prec@5 43.750 (43.750)
Train: [50/422]	Time 0.757 (0.826)	Loss 0.9429 (1.2627)	Prec@1 68.750 (53.370)	Prec@5 98.438 (95.741)
Train: [100/422]	Time 0.755 (0.756)	Loss 0.7994 (1.0574)	Prec@1 62.500 (60.125)	Prec@5 100.000 (97.766)
Train: [150/422]	Time 0.753 (0.755)	Loss 0.7208 (0.8408)	Prec@1 73.438 (67.922)	Prec@5 100.000 (98.672)
…
