…
            #nn.MaxPool2d(2, 2),
            nn.Dropout(0.5)
        )
        
        self.fc = nn.Sequential(
            nn.Linear(128*7*7, 1024),
            nn.ReLU(),
            nn.BatchNorm1d(1024),
            nn.Linear(1024, 10)
        )
        

    def forward(self, x):
        x = self.conv1(x)
        x = self.conv2(x)
        x = self.conv3(x)
        
        x = x.view(x.size(0), -1)
        return self.fc(x)





RANDOM SEED: 6383
data catagory: train
len of img: 27000
data catagory: test
len of img: 5000
data catagory: val
len of img: 3000
using device: cuda
Model(
  (conv1): Sequential(
    (0): Conv2d(1, 32, kernel_size=(3, 3), stride=(1, 1), padding=(1, 1))
    (1): ReLU()
    (2): BatchNorm2d(32, eps=1e-05, momentum=0.1, affine=True, track_running_stats=True)
    (3): Conv2d(32, 32, kernel_size=(3, 3), stride=(1, 1), padding=(1, 1))
    (4): ReLU()
    (5): BatchNorm2d(32, eps=1e-05, momentum=0.1, affine=True, track_running_stats=True)
    (6): MaxPool2d(kernel_size=2, stride=2, padding=0, dilation=1, ceil_mode=False)
    (7): Dropout(p=0.5, inplace=False)
  )
  (conv2): Sequential(
    (0): Conv2d(32, 64, kernel_size=(3, 3), stride=(1, 1), padding=(1, 1))
    (1): ReLU()
    (2): BatchNorm2d(64, eps=1e-05, momentum=0.1, affine=True, track_running_stats=True)
    (3): Conv2d(64, 64, kernel_size=(3, 3), stride=(1, 1), padding=(1, 1))
    (4): ReLU()
    (5): BatchNorm2d(64, eps=1e-05, momentum=0.1, affine=True, track_running_stats=True)
    (6): MaxPool2d(kernel_size=2, stride=2, padding=0, dilation=1, ceil_mode=False)
    (7): Dropout(p=0.5, inplace=False)
  )
  (conv3): Sequential(
    (0): Conv2d(64, 128, kernel_size=(3, 3), stride=(1, 1), padding=(1, 1))
    (1): ReLU()
    (2): BatchNorm2d(128, eps=1e-05, momentum=0.1, affine=True, track_running_stats=True)
    (3): Dropout(p=0.5, inplace=False)
  )
  (fc): Sequential(
    (0): Linear(in_features=6272, out_features=1024, bias=True)
    (1): ReLU()
    (2): BatchNorm1d(1024, eps=1e-05, momentum=0.1, affine=True, track_running_stats=True)
    (3): Linear(in_features=1024, out_features=10, bias=True)
  )
)
epoch: 0
Train: [0/422]	Time 0.325 (0.325)	Loss 2.3328 (2.3328)	Prec@1 14.062 (14.062)	Prec@5 59.375 (59.375)
Train: [50/422]	Time 0.012 (0.020)	Loss 0.9482 (1.1862)	Prec@1 67.188 (60.539)	Prec@5 98.438 (96.201)
Train: [100/422]	Time 0.012 (0.013)	Loss 0.8108 (0.9907)	Prec@1 67.188 (65.016)	Prec@5 98.438 (98.000)
Train: [150/422]	Time 0.011 (0.012)	Loss 0.9469 (0.7928)	Prec@1 64.062 (69.422)	Prec@5 98.438 (99.125)
…
