RANDOM SEED: 4862
data catagory: train
len of img: 27000
data catagory: test
len of img: 5000
data catagory: val
len of img: 3000
using device: cuda
Model(
  (conv1): Sequential(
    (0): Conv2d(1, 32, kernel_size=(3, 3), stride=(1, 1), padding=(1, 1))
    (1): ReLU()
    (2): BatchNorm2d(32, eps=1e-05, momentum=0.1, affine=True, track_running_stats=True)
    (3): Conv2d(32, 32, kernel_size=(3, 3), stride=(1, 1), padding=(1, 1))
    (4): ReLU()
    (5): BatchNorm2d(32, eps=1e-05, momentum=0.1, affine=True, track_running_stats=True)
    (6): MaxPool2d(kernel_size=2, stride=2, padding=0, dilation=1, ceil_mode=False)
    (7): Dropout(p=0.5, inplace=False)
  )
  (conv2): Sequential(
    (0): Conv2d(32, 64, kernel_size=(3, 3), stride=(1, 1), padding=(1, 1))
    (1): ReLU()
    (2): BatchNorm2d(64, eps=1e-05, momentum=0.1, affine=True, track_running_stats=True)
    (3): Conv2d(64, 64, kernel_size=(3, 3), stride=(1, 1), padding=(1, 1))
    (4): ReLU()
    (5): BatchNorm2d(64, eps=1e-05, momentum=0.1, affine=True, track_running_stats=True)
    (6): MaxPool2d(kernel_size=2, stride=2, padding=0, dilation=1, ceil_mode=False)
    (7): Dropout(p=0.5, inplace=False)
  )
  (conv3): Sequential(
    (0): Conv2d(64, 128, kernel_size=(3, 3), stride=(1, 1), padding=(1, 1))
    (1): ReLU()
    (2): BatchNorm2d(128, eps=1e-05, momentum=0.1, affine=True, track_running_stats=True)
    (3): Dropout(p=0.5, inplace=False)
  )
  (fc): Sequential(
    (0): Linear(in_features=6272, out_features=1024, bias=True)
    (1): ReLU()
    (2): BatchNorm1d(1024, eps=1e-05, momentum=0.1, affine=True, track_running_stats=True)
    (3): Linear(in_features=1024, out_features=10, bias=True)
  )
)
epoch: 0
Train: [0/422]	Time 0.287 (0.287)	Loss 2.4676 (2.4676)	Prec@1 4.688 (4.688)	Prec@5 43.750 (43.750)
Train: [50/422]	Time 0.012 (0.019)	Loss 0.8970 (1.2452)	Prec@1 70.312 (57.047)	Prec@5 98.438 (95.803)
Train: [100/422]	Time 0.018 (0.013)	Loss 0.6891 (1.0478)	Prec@1 79.688 (62.375)	Prec@5 98.438 (97.719)
Train: [150/422]	Time 0.011 (0.012)	Loss 0.9559 (0.8311)	Prec@1 67.188 (68.469)	Prec@5 96.875 (98.828)
…
