RANDOM SEED: 4862
data catagory: train
len of img: 27000
data catagory: test
len of img: 5000
data catagory: val
len of img: 3000
using device: cuda
Model(
  (conv1): Sequential(
    (0): Conv2d(1, 32, kernel_size=(3, 3), stride=(1, 1), padding=(1, 1))
    (1): ReLU()
    (2): BatchNorm2d(32, eps=1e-05, momentum=0.1, affine=True, track_running_stats=True)
    (3): Conv2d(32, 32, kernel_size=(3, 3), stride=(1, 1), padding=(1, 1))
    (4): ReLU()
    (5): BatchNorm2d(32, eps=1e-05, momentum=0.1, affine=True, track_running_stats=True)
    (6): MaxPool2d(kernel_size=2, stride=2, padding=0, dilation=1, ceil_mode=False)
    (7): Dropout(p=0.5, inplace=False)
  )
  (conv2): Sequential(
    (0): Conv2d(32, 64, kernel_size=(3, 3), stride=(1, 1), padding=(1, 1))
    (1): ReLU()
    (2): BatchNorm2d(64, eps=1e-05, momentum=0.1, affine=True, track_running_stats=True)
    (3): Conv2d(64, 64, kernel_size=(3, 3), stride=(1, 1), padding=(1, 1))
    (4): ReLU()
    (5): BatchNorm2d(64, eps=1e-05, momentum=0.1, affine=True, track_running_stats=True)
    (6): MaxPool2d(kernel_size=2, stride=2, padding=0, dilation=1, ceil_mode=False)
    (7): Dropout(p=0.5, inplace=False)
  )
  (conv3): Sequential(
    (0): Conv2d(64, 128, kernel_size=(3, 3), stride=(1, 1), padding=(1, 1))
    (1): ReLU()
    (2): BatchNorm2d(128, eps=1e-05, momentum=0.1, affine=True, track_running_stats=True)
    (3): Dropout(p=0.5, inplace=False)
  )
  (fc): Sequential(
    (0): Linear(in_features=6272, out_features=1024, bias=True)
    (1): ReLU()
    (2): BatchNorm1d(1024, eps=1e-05, momentum=0.1, affine=True, track_running_stats=True)
    (3): Linear(in_features=1024, out_features=10, bias=True)
  )
)
epoch: 0
Train: [0/422]	Time 0.278 (0.278)	Loss 2.3958 (2.3958)	Prec@1 12.500 (12.500)	Prec@5 48.438 (48.438)
Train: [50/422]	Time 0.009 (0.016)	Loss 1.0286 (1.1947)	Prec@1 73.438 (58.824)	Prec@5 93.750 (95.680)
Train: [100/422]	Time 0.015 (0.010)	Loss 0.6722 (0.9990)	Prec@1 76.562 (64.562)	Prec@5 100.000 (97.781)
Train: [150/422]	Time 0.009 (0.010)	Loss 0.7264 (0.8114)	Prec@1 71.875 (70.125)	Prec@5 98.438 (98.984)
…
