RANDOM SEED: 7576
data catagory: train
len of img: 28500
data catagory: test
len of img: 5000
data catagory: val
len of img: 1500
using device: cuda
Model(
  (conv1): Sequential(
    (0): Conv2d(1, 32, kernel_size=(3, 3), stride=(1, 1), padding=(1, 1))
    (1): ReLU()
    (2): BatchNorm2d(32, eps=1e-05, momentum=0.1, affine=True, track_running_stats=True)
    (3): Conv2d(32, 32, kernel_size=(3, 3), stride=(1, 1), padding=(1, 1))
    (4): ReLU()
    (5): BatchNorm2d(32, eps=1e-05, momentum=0.1, affine=True, track_running_stats=True)
    (6): MaxPool2d(kernel_size=2, stride=2, padding=0, dilation=1, ceil_mode=False)
    (7): Dropout(p=0.5, inplace=False)
  )
  (conv2): Sequential(
    (0): Conv2d(32, 64, kernel_size=(3, 3), stride=(1, 1), padding=(1, 1))
    (1): ReLU()
    (2): BatchNorm2d(64, eps=1e-05, momentum=0.1, affine=True, track_running_stats=True)
    (3): Conv2d(64, 64, kernel_size=(3, 3), stride=(1, 1), padding=(1, 1))
    (4): ReLU()
    (5): BatchNorm2d(64, eps=1e-05, momentum=0.1, affine=True, track_running_stats=True)
    (6): MaxPool2d(kernel_size=2, stride=2, padding=0, dilation=1, ceil_mode=False)
    (7): Dropout(p=0.5, inplace=False)
  )
  (conv3): Sequential(
    (0): Conv2d(64, 128, kernel_size=(3, 3), stride=(1, 1), padding=(1, 1))
    (1): ReLU()
    (2): BatchNorm2d(128, eps=1e-05, momentum=0.1, affine=True, track_running_stats=True)
    (3): Dropout(p=0.5, inplace=False)
  )
  (fc): Sequential(
    (0): Linear(in_features=6272, out_features=1024, bias=True)
    (1): ReLU()
    (2): BatchNorm1d(1024, eps=1e-05, momentum=0.1, affine=True, track_running_stats=True)
    (3): Linear(in_features=1024, out_features=10, bias=True)
  )
)
epoch: 0
Train: [0/446]	Time 0.330 (0.330)	Loss 2.4755 (2.4755)	Prec@1 10.938 (10.938)	Prec@5 42.188 (42.188)
Train: [50/446]	Time 0.011 (0.023)	Loss 1.1008 (1.2253)	Prec@1 62.500 (57.292)	Prec@5 98.438 (95.803)
Train: [100/446]	Time 0.017 (0.017)	Loss 0.8778 (1.0369)	Prec@1 68.750 (62.531)	Prec@5 96.875 (97.906)
Train: [150/446]	Time 0.017 (0.016)	Loss 0.7809 (0.8325)	Prec@1 71.875 (68.656)	Prec@5 100.000 (99.000)
…
