RANDOM SEED: 2781
data catagory: train
len of img: 27000
data catagory: test
len of img: 5000
data catagory: val
len of img: 3000
using device: cuda
Model(
  (conv1): Sequential(
    (0): Conv2d(1, 32, kernel_size=(3, 3), stride=(1, 1), padding=(1, 1))
    (1): ReLU()
    (2): BatchNorm2d(32, eps=1e-05, momentum=0.1, affine=True, track_running_stats=True)
    (3): Conv2d(32, 32, kernel_size=(3, 3), stride=(1, 1), padding=(1, 1))
    (4): ReLU()
    (5): BatchNorm2d(32, eps=1e-05, momentum=0.1, affine=True, track_running_stats=True)
    (6): MaxPool2d(kernel_size=2, stride=2, padding=0, dilation=1, ceil_mode=False)
    (7): Dropout(p=0.25, inplace=False)
  )
  (conv2): Sequential(
    (0): Conv2d(32, 64, kernel_size=(3, 3), stride=(1, 1), padding=(1, 1))
    (1): ReLU()
    (2): BatchNorm2d(64, eps=1e-05, momentum=0.1, affine=True, track_running_stats=True)
    (3): Conv2d(64, 64, kernel_size=(3, 3), stride=(1, 1), padding=(1, 1))
    (4): ReLU()
    (5): BatchNorm2d(64, eps=1e-05, momentum=0.1, affine=True, track_running_stats=True)
    (6): MaxPool2d(kernel_size=2, stride=2, padding=0, dilation=1, ceil_mode=False)
    (7): Dropout(p=0.25, inplace=False)
  )
  (conv3): Sequential(
    (0): Conv2d(64, 128, kernel_size=(3, 3), stride=(1, 1), padding=(1, 1))
    (1): ReLU()
    (2): BatchNorm2d(128, eps=1e-05, momentum=0.1, affine=True, track_running_stats=True)
    (3): Conv2d(128, 128, kernel_size=(3, 3), stride=(1, 1), padding=(1, 1))
    (4): ReLU()
    (5): BatchNorm2d(128, eps=1e-05, momentum=0.1, affine=True, track_running_stats=True)
    (6): Dropout(p=0.25, inplace=False)
  )
  (fc): Sequential(
    (0): Linear(in_features=6272, out_features=1024, bias=True)
    (1): ReLU()
    (2): Dropout(p=0.5, inplace=False)
    (3): Linear(in_features=1024, out_features=256, bias=True)
    (4): ReLU()
    (5): Dropout(p=0.5, inplace=False)
    (6): Linear(in_features=256, out_features=10, bias=True)
  )
)
epoch: 0
Train: [0/422]	Time 0.402 (0.402)	Loss 2.3305 (2.3305)	Prec@1 7.812 (7.812)	Prec@5 42.188 (42.188)
Train: [50/422]	Time 0.013 (0.023)	Loss 1.0612 (1.2503)	Prec@1 65.625 (54.871)	Prec@5 98.438 (93.873)
Train: [100/422]	Time 0.022 (0.015)	Loss 0.9662 (1.0714)	Prec@1 65.625 (61.047)	Prec@5 98.438 (96.734)
Train: [150/422]	Time 0.039 (0.016)	Loss 0.8773 (0.8690)	Prec@1 68.750 (67.969)	Prec@5 100.000 (98.734)
…
